…
      (conv3): Conv2d(512, 2048, kernel_size=(1, 1), stride=(1, 1), bias=False)
      (bn3): BatchNorm2d(2048, eps=1e-05, momentum=0.1, affine=True, track_running_stats=True)
      (relu): ReLU(inplace=True)
    )
  )
  (avgpool): AdaptiveAvgPool2d(output_size=(1, 1))
  (fc): Linear(in_features=2048, out_features=1000, bias=True)
)
Sequential(
  (0): Linear(in_features=2048, out_features=30, bias=True)
  (1): LogSoftmax()
)
----------------------------------------------------------------
        Layer (type)               Output Shape         Param #
================================================================
            Conv2d-1        [128, 64, 112, 112]           9,408
       BatchNorm2d-2        [128, 64, 112, 112]             128
              ReLU-3        [128, 64, 112, 112]               0
         MaxPool2d-4          [128, 64, 56, 56]               0
            Conv2d-5          [128, 64, 56, 56]           4,096
       BatchNorm2d-6          [128, 64, 56, 56]             128
              ReLU-7          [128, 64, 56, 56]               0
            Conv2d-8          [128, 64, 56, 56]          36,864
       BatchNorm2d-9          [128, 64, 56, 56]             128
             ReLU-10          [128, 64, 56, 56]               0
           Conv2d-11         [128, 256, 56, 56]          16,384
      BatchNorm2d-12         [128, 256, 56, 56]             512
           Conv2d-13         [128, 256, 56, 56]          16,384
      BatchNorm2d-14         [128, 256, 56, 56]             512
             ReLU-15         [128, 256, 56, 56]               0
       Bottleneck-16         [128, 256, 56, 56]               0
           Conv2d-17          [128, 64, 56, 56]          16,384
      BatchNorm2d-18          [128, 64, 56, 56]             128
             ReLU-19          [128, 64, 56, 56]               0
           Conv2d-20          [128, 64, 56, 56]          36,864
      BatchNorm2d-21          [128, 64, 56, 56]             128
             ReLU-22          [128, 64, 56, 56]               0
           Conv2d-23         [128, 256, 56, 56]          16,384
      BatchNorm2d-24         [128, 256, 56, 56]             512
             ReLU-25         [128, 256, 56, 56]               0
       Bottleneck-26         [128, 256, 56, 56]               0
           Conv2d-27          [128, 64, 56, 56]          16,384
      BatchNorm2d-28          [128, 64, 56, 56]             128
             ReLU-29          [128, 64, 56, 56]               0
           Conv2d-30          [128, 64, 56, 56]          36,864
      BatchNorm2d-31          [128, 64, 56, 56]             128
             ReLU-32          [128, 64, 56, 56]               0
           Conv2d-33         [128, 256, 56, 56]          16,384
      BatchNorm2d-34         [128, 256, 56, 56]             512
             ReLU-35         [128, 256, 56, 56]               0
       Bottleneck-36         [128, 256, 56, 56]               0
           Conv2d-37         [128, 128, 56, 56]          32,768
      BatchNorm2d-38         [128, 128, 56, 56]             256
             ReLU-39         [128, 128, 56, 56]               0
           Conv2d-40         [128, 128, 28, 28]         147,456
      BatchNorm2d-41         [128, 128, 28, 28]             256
             ReLU-42         [128, 128, 28, 28]               0
           Conv2d-43         [128, 512, 28, 28]          65,536
      BatchNorm2d-44         [128, 512, 28, 28]           1,024
           Conv2d-45         [128, 512, 28, 28]         131,072
      BatchNorm2d-46         [128, 512, 28, 28]           1,024
             ReLU-47         [128, 512, 28, 28]               0
       Bottleneck-48         [128, 512, 28, 28]               0
           Conv2d-49         [128, 128, 28, 28]          65,536
      BatchNorm2d-50         [128, 128, 28, 28]             256
             ReLU-51         [128, 128, 28, 28]               0
           Conv2d-52         [128, 128, 28, 28]         147,456
      BatchNorm2d-53         [128, 128, 28, 28]             256
             ReLU-54         [128, 128, 28, 28]               0
           Conv2d-55         [128, 512, 28, 28]          65,536
      BatchNorm2d-56         [128, 512, 28, 28]           1,024
             ReLU-57         [128, 512, 28, 28]               0
       Bottleneck-58         [128, 512, 28, 28]               0
           Conv2d-59         [128, 128, 28, 28]          65,536
      BatchNorm2d-60         [128, 128, 28, 28]             256
             ReLU-61         [128, 128, 28, 28]               0
           Conv2d-62         [128, 128, 28, 28]         147,456
      BatchNorm2d-63         [128, 128, 28, 28]             256
             ReLU-64         [128, 128, 28, 28]               0
           Conv2d-65         [128, 512, 28, 28]          65,536
      BatchNorm2d-66         [128, 512, 28, 28]           1,024
             ReLU-67         [128, 512, 28, 28]               0
       Bottleneck-68         [128, 512, 28, 28]               0
           Conv2d-69         [128, 128, 28, 28]          65,536
      BatchNorm2d-70         [128, 128, 28, 28]             256
             ReLU-71         [128, 128, 28, 28]               0
           Conv2d-72         [128, 128, 28, 28]         147,456
      BatchNorm2d-73         [128, 128, 28, 28]             256
             ReLU-74         [128, 128, 28, 28]               0
           Conv2d-75         [128, 512, 28, 28]          65,536
      BatchNorm2d-76         [128, 512, 28, 28]           1,024
             ReLU-77         [128, 512, 28, 28]               0
       Bottleneck-78         [128, 512, 28, 28]               0
           Conv2d-79         [128, 256, 28, 28]         131,072
      BatchNorm2d-80         [128, 256, 28, 28]             512
             ReLU-81         [128, 256, 28, 28]               0
           Conv2d-82         [128, 256, 14, 14]         589,824
      BatchNorm2d-83         [128, 256, 14, 14]             512
             ReLU-84         [128, 256, 14, 14]               0
           Conv2d-85        [128, 1024, 14, 14]         262,144
      BatchNorm2d-86        [128, 1024, 14, 14]           2,048
           Conv2d-87        [128, 1024, 14, 14]         524,288
      BatchNorm2d-88        [128, 1024, 14, 14]           2,048
             ReLU-89        [128, 1024, 14, 14]               0
       Bottleneck-90        [128, 1024, 14, 14]               0
           Conv2d-91         [128, 256, 14, 14]         262,144
      BatchNorm2d-92         [128, 256, 14, 14]             512
             ReLU-93         [128, 256, 14, 14]               0
           Conv2d-94         [128, 256, 14, 14]         589,824
      BatchNorm2d-95         [128, 256, 14, 14]             512
             ReLU-96         [128, 256, 14, 14]               0
           Conv2d-97        [128, 1024, 14, 14]         262,144
      BatchNorm2d-98        [128, 1024, 14, 14]           2,048
             ReLU-99        [128, 1024, 14, 14]               0
      Bottleneck-100        [128, 1024, 14, 14]               0
          Conv2d-101         [128, 256, 14, 14]         262,144
     BatchNorm2d-102         [128, 256, 14, 14]             512
            ReLU-103         [128, 256, 14, 14]               0
          Conv2d-104         [128, 256, 14, 14]         589,824
     BatchNorm2d-105         [128, 256, 14, 14]             512
            ReLU-106         [128, 256, 14, 14]               0
          Conv2d-107        [128, 1024, 14, 14]         262,144
     BatchNorm2d-108        [128, 1024, 14, 14]           2,048
            ReLU-109        [128, 1024, 14, 14]               0
      Bottleneck-110        [128, 1024, 14, 14]               0
          Conv2d-111         [128, 256, 14, 14]         262,144
     BatchNorm2d-112         [128, 256, 14, 14]             512
            ReLU-113         [128, 256, 14, 14]               0
          Conv2d-114         [128, 256, 14, 14]         589,824
     BatchNorm2d-115         [128, 256, 14, 14]             512
            ReLU-116         [128, 256, 14, 14]               0
          Conv2d-117        [128, 1024, 14, 14]         262,144
     BatchNorm2d-118        [128, 1024, 14, 14]           2,048
            ReLU-119        [128, 1024, 14, 14]               0
      Bottleneck-120        [128, 1024, 14, 14]               0
          Conv2d-121         [128, 256, 14, 14]         262,144
     BatchNorm2d-122         [128, 256, 14, 14]             512
            ReLU-123         [128, 256, 14, 14]               0
          Conv2d-124         [128, 256, 14, 14]         589,824
     BatchNorm2d-125         [128, 256, 14, 14]             512
            ReLU-126         [128, 256, 14, 14]               0
          Conv2d-127        [128, 1024, 14, 14]         262,144
     BatchNorm2d-128        [128, 1024, 14, 14]           2,048
            ReLU-129        [128, 1024, 14, 14]               0
      Bottleneck-130        [128, 1024, 14, 14]               0
          Conv2d-131         [128, 256, 14, 14]         262,144
     BatchNorm2d-132         [128, 256, 14, 14]             512
            ReLU-133         [128, 256, 14, 14]               0
          Conv2d-134         [128, 256, 14, 14]         589,824
     BatchNorm2d-135         [128, 256, 14, 14]             512
            ReLU-136         [128, 256, 14, 14]               0
          Conv2d-137        [128, 1024, 14, 14]         262,144
     BatchNorm2d-138        [128, 1024, 14, 14]           2,048
            ReLU-139        [128, 1024, 14, 14]               0
      Bottleneck-140        [128, 1024, 14, 14]               0
          Conv2d-141         [128, 512, 14, 14]         524,288
     BatchNorm2d-142         [128, 512, 14, 14]           1,024
            ReLU-143         [128, 512, 14, 14]               0
          Conv2d-144           [128, 512, 7, 7]       2,359,296
     BatchNorm2d-145           [128, 512, 7, 7]           1,024
            ReLU-146           [128, 512, 7, 7]               0
          Conv2d-147          [128, 2048, 7, 7]       1,048,576
     BatchNorm2d-148          [128, 2048, 7, 7]           4,096
          Conv2d-149          [128, 2048, 7, 7]       2,097,152
     BatchNorm2d-150          [128, 2048, 7, 7]           4,096
            ReLU-151          [128, 2048, 7, 7]               0
      Bottleneck-152          [128, 2048, 7, 7]               0
          Conv2d-153           [128, 512, 7, 7]       1,048,576
     BatchNorm2d-154           [128, 512, 7, 7]           1,024
            ReLU-155           [128, 512, 7, 7]               0
          Conv2d-156           [128, 512, 7, 7]       2,359,296
     BatchNorm2d-157           [128, 512, 7, 7]           1,024
            ReLU-158           [128, 512, 7, 7]               0
          Conv2d-159          [128, 2048, 7, 7]       1,048,576
     BatchNorm2d-160          [128, 2048, 7, 7]           4,096
            ReLU-161          [128, 2048, 7, 7]               0
      Bottleneck-162          [128, 2048, 7, 7]               0
          Conv2d-163           [128, 512, 7, 7]       1,048,576
     BatchNorm2d-164           [128, 512, 7, 7]           1,024
            ReLU-165           [128, 512, 7, 7]               0
          Conv2d-166           [128, 512, 7, 7]       2,359,296
     BatchNorm2d-167           [128, 512, 7, 7]           1,024
            ReLU-168           [128, 512, 7, 7]               0
          Conv2d-169          [128, 2048, 7, 7]       1,048,576
     BatchNorm2d-170          [128, 2048, 7, 7]           4,096
            ReLU-171          [128, 2048, 7, 7]               0
      Bottleneck-172          [128, 2048, 7, 7]               0
AdaptiveAvgPool2d-173          [128, 2048, 1, 1]               0
          Linear-174                  [128, 30]          61,470
      LogSoftmax-175                  [128, 30]               0
================================================================
Total params: 23,569,502
Trainable params: 61,470
Non-trainable params: 23,508,032
----------------------------------------------------------------
Input size (MB): 73.50
Forward/backward pass size (MB): 36678.56
Params size (MB): 89.91
Estimated Total Size (MB): 36841.97
----------------------------------------------------------------
…
